08/07/2021 02:26:46 - Success - GPU 3 has 32507 MB of free space.
Cannot import minkowski engine. Try spconv next
Dataset: ['kitti']
Cannot import minkowski engine. Try spconv next
==============================   Model   ==============================
PointNet2MSG(
  (SA_modules): ModuleList(
    (0): PointnetSAModuleMSG(
      (groupers): ModuleList(
        (0): QueryAndGroup()
        (1): QueryAndGroup()
      )
      (mlps): ModuleList(
        (0): Sequential(
          (0): Conv2d(4, 16, kernel_size=(1, 1), stride=(1, 1), bias=False)
          (1): BatchNorm2d(16, eps=1e-05, momentum=0.1, affine=True, track_running_stats=True)
          (2): ReLU()
          (3): Conv2d(16, 16, kernel_size=(1, 1), stride=(1, 1), bias=False)
          (4): BatchNorm2d(16, eps=1e-05, momentum=0.1, affine=True, track_running_stats=True)
          (5): ReLU()
          (6): Conv2d(16, 32, kernel_size=(1, 1), stride=(1, 1), bias=False)
          (7): BatchNorm2d(32, eps=1e-05, momentum=0.1, affine=True, track_running_stats=True)
          (8): ReLU()
        )
        (1): Sequential(
          (0): Conv2d(4, 32, kernel_size=(1, 1), stride=(1, 1), bias=False)
          (1): BatchNorm2d(32, eps=1e-05, momentum=0.1, affine=True, track_running_stats=True)
          (2): ReLU()
          (3): Conv2d(32, 32, kernel_size=(1, 1), stride=(1, 1), bias=False)
          (4): BatchNorm2d(32, eps=1e-05, momentum=0.1, affine=True, track_running_stats=True)
          (5): ReLU()
          (6): Conv2d(32, 64, kernel_size=(1, 1), stride=(1, 1), bias=False)
          (7): BatchNorm2d(64, eps=1e-05, momentum=0.1, affine=True, track_running_stats=True)
          (8): ReLU()
        )
      )
    )
    (1): PointnetSAModuleMSG(
      (groupers): ModuleList(
        (0): QueryAndGroup()
        (1): QueryAndGroup()
      )
      (mlps): ModuleList(
        (0): Sequential(
          (0): Conv2d(99, 64, kernel_size=(1, 1), stride=(1, 1), bias=False)
          (1): BatchNorm2d(64, eps=1e-05, momentum=0.1, affine=True, track_running_stats=True)
          (2): ReLU()
          (3): Conv2d(64, 64, kernel_size=(1, 1), stride=(1, 1), bias=False)
          (4): BatchNorm2d(64, eps=1e-05, momentum=0.1, affine=True, track_running_stats=True)
          (5): ReLU()
          (6): Conv2d(64, 128, kernel_size=(1, 1), stride=(1, 1), bias=False)
          (7): BatchNorm2d(128, eps=1e-05, momentum=0.1, affine=True, track_running_stats=True)
          (8): ReLU()
        )
        (1): Sequential(
          (0): Conv2d(99, 64, kernel_size=(1, 1), stride=(1, 1), bias=False)
          (1): BatchNorm2d(64, eps=1e-05, momentum=0.1, affine=True, track_running_stats=True)
          (2): ReLU()
          (3): Conv2d(64, 96, kernel_size=(1, 1), stride=(1, 1), bias=False)
          (4): BatchNorm2d(96, eps=1e-05, momentum=0.1, affine=True, track_running_stats=True)
          (5): ReLU()
          (6): Conv2d(96, 128, kernel_size=(1, 1), stride=(1, 1), bias=False)
          (7): BatchNorm2d(128, eps=1e-05, momentum=0.1, affine=True, track_running_stats=True)
          (8): ReLU()
        )
      )
    )
    (2): PointnetSAModuleMSG(
      (groupers): ModuleList(
        (0): QueryAndGroup()
        (1): QueryAndGroup()
      )
      (mlps): ModuleList(
        (0): Sequential(
          (0): Conv2d(259, 128, kernel_size=(1, 1), stride=(1, 1), bias=False)
          (1): BatchNorm2d(128, eps=1e-05, momentum=0.1, affine=True, track_running_stats=True)
          (2): ReLU()
          (3): Conv2d(128, 196, kernel_size=(1, 1), stride=(1, 1), bias=False)
          (4): BatchNorm2d(196, eps=1e-05, momentum=0.1, affine=True, track_running_stats=True)
          (5): ReLU()
          (6): Conv2d(196, 256, kernel_size=(1, 1), stride=(1, 1), bias=False)
          (7): BatchNorm2d(256, eps=1e-05, momentum=0.1, affine=True, track_running_stats=True)
          (8): ReLU()
        )
        (1): Sequential(
          (0): Conv2d(259, 128, kernel_size=(1, 1), stride=(1, 1), bias=False)
          (1): BatchNorm2d(128, eps=1e-05, momentum=0.1, affine=True, track_running_stats=True)
          (2): ReLU()
          (3): Conv2d(128, 196, kernel_size=(1, 1), stride=(1, 1), bias=False)
          (4): BatchNorm2d(196, eps=1e-05, momentum=0.1, affine=True, track_running_stats=True)
          (5): ReLU()
          (6): Conv2d(196, 256, kernel_size=(1, 1), stride=(1, 1), bias=False)
          (7): BatchNorm2d(256, eps=1e-05, momentum=0.1, affine=True, track_running_stats=True)
          (8): ReLU()
        )
      )
    )
    (3): PointnetSAModuleMSG(
      (groupers): ModuleList(
        (0): QueryAndGroup()
        (1): QueryAndGroup()
      )
      (mlps): ModuleList(
        (0): Sequential(
          (0): Conv2d(515, 256, kernel_size=(1, 1), stride=(1, 1), bias=False)
          (1): BatchNorm2d(256, eps=1e-05, momentum=0.1, affine=True, track_running_stats=True)
          (2): ReLU()
          (3): Conv2d(256, 256, kernel_size=(1, 1), stride=(1, 1), bias=False)
          (4): BatchNorm2d(256, eps=1e-05, momentum=0.1, affine=True, track_running_stats=True)
          (5): ReLU()
          (6): Conv2d(256, 512, kernel_size=(1, 1), stride=(1, 1), bias=False)
          (7): BatchNorm2d(512, eps=1e-05, momentum=0.1, affine=True, track_running_stats=True)
          (8): ReLU()
        )
        (1): Sequential(
          (0): Conv2d(515, 256, kernel_size=(1, 1), stride=(1, 1), bias=False)
          (1): BatchNorm2d(256, eps=1e-05, momentum=0.1, affine=True, track_running_stats=True)
          (2): ReLU()
          (3): Conv2d(256, 384, kernel_size=(1, 1), stride=(1, 1), bias=False)
          (4): BatchNorm2d(384, eps=1e-05, momentum=0.1, affine=True, track_running_stats=True)
          (5): ReLU()
          (6): Conv2d(384, 512, kernel_size=(1, 1), stride=(1, 1), bias=False)
          (7): BatchNorm2d(512, eps=1e-05, momentum=0.1, affine=True, track_running_stats=True)
          (8): ReLU()
        )
      )
    )
  )
  (FP_modules): ModuleList(
    (0): PointnetFPModule(
      (mlp): Sequential(
        (0): Conv2d(257, 128, kernel_size=(1, 1), stride=(1, 1), bias=False)
        (1): BatchNorm2d(128, eps=1e-05, momentum=0.1, affine=True, track_running_stats=True)
        (2): ReLU()
        (3): Conv2d(128, 128, kernel_size=(1, 1), stride=(1, 1), bias=False)
        (4): BatchNorm2d(128, eps=1e-05, momentum=0.1, affine=True, track_running_stats=True)
        (5): ReLU()
      )
    )
    (1): PointnetFPModule(
      (mlp): Sequential(
        (0): Conv2d(608, 256, kernel_size=(1, 1), stride=(1, 1), bias=False)
        (1): BatchNorm2d(256, eps=1e-05, momentum=0.1, affine=True, track_running_stats=True)
        (2): ReLU()
        (3): Conv2d(256, 256, kernel_size=(1, 1), stride=(1, 1), bias=False)
        (4): BatchNorm2d(256, eps=1e-05, momentum=0.1, affine=True, track_running_stats=True)
        (5): ReLU()
      )
    )
    (2): PointnetFPModule(
      (mlp): Sequential(
        (0): Conv2d(768, 512, kernel_size=(1, 1), stride=(1, 1), bias=False)
        (1): BatchNorm2d(512, eps=1e-05, momentum=0.1, affine=True, track_running_stats=True)
        (2): ReLU()
        (3): Conv2d(512, 512, kernel_size=(1, 1), stride=(1, 1), bias=False)
        (4): BatchNorm2d(512, eps=1e-05, momentum=0.1, affine=True, track_running_stats=True)
        (5): ReLU()
      )
    )
    (3): PointnetFPModule(
      (mlp): Sequential(
        (0): Conv2d(1536, 512, kernel_size=(1, 1), stride=(1, 1), bias=False)
        (1): BatchNorm2d(512, eps=1e-05, momentum=0.1, affine=True, track_running_stats=True)
        (2): ReLU()
        (3): Conv2d(512, 512, kernel_size=(1, 1), stride=(1, 1), bias=False)
        (4): BatchNorm2d(512, eps=1e-05, momentum=0.1, affine=True, track_running_stats=True)
        (5): ReLU()
      )
    )
  )
  (head): MLP(
    (clf): Sequential(
      (0): Linear(in_features=128, out_features=128, bias=True)
      (1): ReLU(inplace=True)
      (2): Linear(in_features=128, out_features=128, bias=True)
    )
  )
)
==============================   Parameters   ==============================
SA_modules.0.mlps.0.0.weight                                           | Trainable  | 16 x 4 x 1 x 1                 | 64
SA_modules.0.mlps.0.1.weight                                           | Trainable  | 16                             | 16
SA_modules.0.mlps.0.1.bias                                             | Trainable  | 16                             | 16
…
head.clf.0.weight                                                      | Frozen     | 128 x 128                      | 16384
head.clf.0.bias                                                        | Frozen     | 128                            | 128
head.clf.2.weight                                                      | Frozen     | 128 x 128                      | 16384
head.clf.2.bias                                                        | Frozen     | 128                            | 128

==============================   Model   ==============================
UNetV2_concat(
  (conv_input): SparseSequential(
    (0): SubMConv3d()
    (1): BatchNorm1d(16, eps=0.001, momentum=0.01, affine=True, track_running_stats=True)
    (2): ReLU()
  )
  (conv1): SparseSequential(
    (0): SparseSequential(
      (0): SubMConv3d()
      (1): BatchNorm1d(16, eps=0.001, momentum=0.01, affine=True, track_running_stats=True)
      (2): ReLU()
    )
  )
  (conv2): SparseSequential(
    (0): SparseSequential(
      (0): SparseConv3d()
      (1): BatchNorm1d(32, eps=0.001, momentum=0.01, affine=True, track_running_stats=True)
      (2): ReLU()
    )
    (1): SparseSequential(
      (0): SubMConv3d()
      (1): BatchNorm1d(32, eps=0.001, momentum=0.01, affine=True, track_running_stats=True)
      (2): ReLU()
    )
    (2): SparseSequential(
      (0): SubMConv3d()
      (1): BatchNorm1d(32, eps=0.001, momentum=0.01, affine=True, track_running_stats=True)
      (2): ReLU()
    )
  )
  (conv3): SparseSequential(
    (0): SparseSequential(
      (0): SparseConv3d()
      (1): BatchNorm1d(64, eps=0.001, momentum=0.01, affine=True, track_running_stats=True)
      (2): ReLU()
    )
    (1): SparseSequential(
      (0): SubMConv3d()
      (1): BatchNorm1d(64, eps=0.001, momentum=0.01, affine=True, track_running_stats=True)
      (2): ReLU()
    )
    (2): SparseSequential(
      (0): SubMConv3d()
      (1): BatchNorm1d(64, eps=0.001, momentum=0.01, affine=True, track_running_stats=True)
      (2): ReLU()
    )
  )
  (conv4): SparseSequential(
    (0): SparseSequential(
      (0): SparseConv3d()
      (1): BatchNorm1d(64, eps=0.001, momentum=0.01, affine=True, track_running_stats=True)
      (2): ReLU()
    )
    (1): SparseSequential(
      (0): SubMConv3d()
      (1): BatchNorm1d(64, eps=0.001, momentum=0.01, affine=True, track_running_stats=True)
      (2): ReLU()
    )
    (2): SparseSequential(
      (0): SubMConv3d()
      (1): BatchNorm1d(64, eps=0.001, momentum=0.01, affine=True, track_running_stats=True)
      (2): ReLU()
    )
  )
  (conv_up_t4): SparseBasicBlock(
    (conv1): SubMConv3d()
    (bn1): BatchNorm1d(64, eps=0.001, momentum=0.01, affine=True, track_running_stats=True)
    (relu): ReLU()
    (conv2): SubMConv3d()
    (bn2): BatchNorm1d(64, eps=0.001, momentum=0.01, affine=True, track_running_stats=True)
  )
  (conv_up_m4): SparseSequential(
    (0): SubMConv3d()
    (1): BatchNorm1d(64, eps=0.001, momentum=0.01, affine=True, track_running_stats=True)
    (2): ReLU()
  )
  (inv_conv4): SparseSequential(
    (0): SparseInverseConv3d()
    (1): BatchNorm1d(64, eps=0.001, momentum=0.01, affine=True, track_running_stats=True)
    (2): ReLU()
  )
  (conv_up_t3): SparseBasicBlock(
    (conv1): SubMConv3d()
    (bn1): BatchNorm1d(64, eps=0.001, momentum=0.01, affine=True, track_running_stats=True)
    (relu): ReLU()
    (conv2): SubMConv3d()
    (bn2): BatchNorm1d(64, eps=0.001, momentum=0.01, affine=True, track_running_stats=True)
  )
  (conv_up_m3): SparseSequential(
    (0): SubMConv3d()
    (1): BatchNorm1d(64, eps=0.001, momentum=0.01, affine=True, track_running_stats=True)
    (2): ReLU()
  )
  (inv_conv3): SparseSequential(
    (0): SparseInverseConv3d()
    (1): BatchNorm1d(32, eps=0.001, momentum=0.01, affine=True, track_running_stats=True)
    (2): ReLU()
  )
  (conv_up_t2): SparseBasicBlock(
    (conv1): SubMConv3d()
    (bn1): BatchNorm1d(32, eps=0.001, momentum=0.01, affine=True, track_running_stats=True)
    (relu): ReLU()
    (conv2): SubMConv3d()
    (bn2): BatchNorm1d(32, eps=0.001, momentum=0.01, affine=True, track_running_stats=True)
  )
  (conv_up_m2): SparseSequential(
    (0): SubMConv3d()
    (1): BatchNorm1d(32, eps=0.001, momentum=0.01, affine=True, track_running_stats=True)
    (2): ReLU()
  )
  (inv_conv2): SparseSequential(
    (0): SparseInverseConv3d()
    (1): BatchNorm1d(16, eps=0.001, momentum=0.01, affine=True, track_running_stats=True)
    (2): ReLU()
  )
  (conv_up_t1): SparseBasicBlock(
    (conv1): SubMConv3d()
    (bn1): BatchNorm1d(16, eps=0.001, momentum=0.01, affine=True, track_running_stats=True)
    (relu): ReLU()
    (conv2): SubMConv3d()
    (bn2): BatchNorm1d(16, eps=0.001, momentum=0.01, affine=True, track_running_stats=True)
  )
  (conv_up_m1): SparseSequential(
    (0): SubMConv3d()
    (1): BatchNorm1d(16, eps=0.001, momentum=0.01, affine=True, track_running_stats=True)
    (2): ReLU()
  )
  (conv5): SparseSequential(
    (0): SparseSequential(
      (0): SubMConv3d()
      (1): BatchNorm1d(16, eps=0.001, momentum=0.01, affine=True, track_running_stats=True)
      (2): ReLU()
    )
  )
  (head): MLP(
    (clf): Sequential(
      (0): Linear(in_features=128, out_features=128, bias=True)
      (1): ReLU(inplace=True)
      (2): Linear(in_features=128, out_features=128, bias=True)
    )
  )
)
==============================   Parameters   ==============================
conv_input.0.weight                                                    | Trainable  | 3 x 3 x 3 x 4 x 16             | 1728
conv_input.1.weight                                                    | Trainable  | 16                             | 16
conv_input.1.bias                                                      | Trainable  | 16                             | 16
…
